entire_model.pth (torch, 317539 bytes, 22 tensors)

weight f4 [32, 64, 4, 4]
000000 14 84 20 3b 17 f6 d4 bc 24 3c bc 3d 76 83 58 3d
       0.0024492787 -0.025996251 0.091911584 0.052859746
000010 32 77 09 3e 59 c8 87 bc 7e 02 17 3d 36 05 45 3d
       0.13424376 -0.016575025 0.03686761 0.048100673
000020 ad 55 b6 3b 2c ee 8f 3d 3a 35 41 3d 42 1f 36 3d
       0.0055644126 0.070278496 0.0471699 0.044463404
000030 a8 0b 82 3c a3 e8 1c 3e 5a 3c 7c 3c 17 0c af 3c
       0.015874699 0.15323119 0.015395248 0.02136807
000040 b2 24 89 3c cd b7 4a 39 d8 54 7b 3d ab 3d 01 be
       0.01674113 0.00019332692 0.06136021 -0.1262118
000050 31 93 99 bc 83 3f 11 3e ae 81 8e 3d a3 f4 93 bd
       -0.018746944 0.14184384 0.06958328 -0.07224395
000060 17 d5 37 3d 8a 87 96 bd 7e 42 51 bd c2 20 2d 3d
       0.044880953 -0.07350071 -0.051088803 0.04226757
000070 1d 91 45 bd 3b 67 ea bd f5 10 f7 bc a5 ff 93 3c
       -0.048234094 -0.11445471 -0.030159453 0.018066237
000080 21 74 8a bc 59 d9 fa ba c1 7f 00 3d 3c de 19 3d
       -0.016901078 -0.0019138261 0.031371836 0.037565455
000090 ec 89 8f bd f6 91 7d bd ed de 02 3d 80 fd 5f bd
       -0.070087284 -0.061906777 0.03195088 -0.054685116
0000a0 cb d0 71 bc b8 d1 08 3e 7d 4a a6 3c 0c 7f 0e be
       -0.014759253 0.13361251 0.02029919 -0.13915652
0000b0 3d 04 1a 3d fe f6 1e 3d 9c 12 8c bd 9c 64 e8 bc
       0.0376017 0.03880977 -0.06839487 -0.028368287
0000c0 61 3d 14 3a 35 8c 2d 3d 9d 72 3b be 99 ff af bd
       0.0005654898 0.04237004 -0.1830544 -0.08593673
0000d0 e1 88 ef 3c 9d a9 8e 3d 63 5f 60 3c 20 56 61 3d
       0.029240074 0.06965945 0.013694617 0.055013776
0000e0 71 24 2f bc b4 61 32 bd 09 5e 22 bc a6 56 39 bd
       -0.010689841 -0.04355021 -0.009910115 -0.04524865
0000f0 f9 51 91 3c 25 35 08 3d d6 07 11 3d 89 92 bc bd
       0.017739283 0.033253808 0.035407864 -0.09207637
000100 43 39 94 3d af f7 61 3b 0b 87 c8 bd 55 13 5b bd
       0.07237484 0.0034479906 -0.097913824 -0.053485233
000110 3b 1f e8 3d 89 0e 74 3c 1c f6 f3 bc df 2b 96 3d
       0.11334082 0.014896044 -0.02978044 0.073325865
000120 32 15 bf bd 32 9c 75 bd 57 98 42 3d cc 1a 25 3d
       -0.093302146 -0.059963413 0.047508564 0.04030876
000130 91 80 98 bd 9e 0b 3a 3c 73 b8 d0 3c 5a ca 50 3c
       -0.07446397 0.011355309 0.025478577 0.012743557
000140 fa 79 3e 3a 08 02 83 bc ee f5 68 3d b7 22 53 bc
       0.0007266101 -0.01599218 0.05687516 -0.012886695
000150 ed d5 f9 3c 7e 6a 0a 3c d0 45 c7 3d ed a9 9f bc
       0.030497516 0.008448241 0.097301126 -0.019490207
000160 83 00 ae 3b 15 5b 11 bc 03 21 8a 3d 3d 80 01 3d
       0.0053101196 -0.008871813 0.06744578 0.03161644
000170 97 26 de 3c c9 3c 98 3d 69 07 8b bc 67 9d 16 3d
       0.02711801 0.07433469 -0.016971307 0.036771204
000180 dd d3 3d bd ee 8a 18 3c 33 a7 2a bc 8b d5 d0 3d
       -0.046344627 0.009310467 -0.01041584 0.1019698
000190 bf 24 88 bd fe a0 fa bd ac 55 06 be 2e be 34 be
       -0.06647634 -0.12237738 -0.13118619 -0.17650673
0001a0 32 57 20 3e c8 4c c1 3c e7 ce 0f bd 98 64 68 bd
       0.15658262 0.023596182 -0.035109427 -0.05673656
0001b0 c7 76 c4 bd 5e 16 24 3c 51 09 8e bd e4 20 06 bd
       -0.095929675 0.010015098 -0.06935371 -0.03274621
0001c0 ee ed 41 3d 97 1d 50 bc af 29 97 3d 72 f4 aa 3d
       0.047346048 -0.012702367 0.073809974 0.083474055
0001d0 71 fc 14 bd 85 4f 69 bd 1c ab 90 3d 60 80 18 be
       -0.03637356 -0.0569606 0.070638865 -0.14892721
0001e0 62 b4 a3 bb c0 8e 2f be 64 09 16 bc 25 9b 8f 3c
       -0.0049958685 -0.17144299 -0.009157512 0.017530033
0001f0 e3 e1 54 bc 94 5e a2 3d db a7 05 bc a6 17 36 3d
       -0.012993309 0.079281956 -0.008157696 0.044456147
000200 9e cd dd bb c2 af e8 3c 04 ea dd 3b 3f 43 4d bd
       -0.0067688962 0.02840412 0.0067722816 -0.05011296
000210 86 26 fe bc e1 e4 9b 3d 3c 0a b0 3b e3 c2 24 3c
       -0.031024229 0.076120146 0.005372314 0.01005623
000220 5f 1d 21 3c 08 3d df bd 1a a3 d1 bc 12 45 8d bd
       0.009833663 -0.10900313 -0.025590468 -0.0689794
000230 58 0b 32 3c ee d7 11 bd c3 89 61 3c dd 90 81 3d
       0.010866962 -0.035606317 0.013765755 0.063264586
000240 94 aa 51 bc 68 c1 8e 3c 97 92 08 bd 2f 52 4f bc
       -0.012797017 0.017426208 -0.033342924 -0.012653871
000250 57 f8 b9 3c bc 7f 22 3d 49 00 a9 bd 08 52 b2 3d
       0.022701425 0.0396726 -0.082520075 0.087070525
000260 21 ec d4 3c 58 97 31 3b e8 44 4a bd c5 83 10 3d
       0.025991501 0.0027098265 -0.04938212 0.035281915
000270 1d 43 ab 3b 59 86 a3 bd 7c 67 db 3c 53 ff 22 3d
       0.0052265064 -0.07984609 0.026782744 0.039794277
000280 31 25 c9 bc 44 ae 9a bc 3c 4d ce bd 73 44 e7 bc
       -0.024553867 -0.018881924 -0.10073325 -0.028230881
000290 06 a2 9e 3c fc 81 60 3d b8 dd d6 bd 53 10 ed bc
       0.019364368 0.054811463 -0.10491508 -0.028938448
0002a0 c4 dd a5 bd c6 df 0b bc 5e e2 03 bd 9a 15 a5 bd
       -0.08098939 -0.008537238 -0.032198302 -0.08060761
0002b0 fd b7 8c 3d 80 b4 3a bd 83 54 76 bd 63 e7 02 be
       0.068710305 -0.045582294 -0.06013919 -0.1278358
0002c0 0b 42 a9 bd d6 a9 99 bc 24 f0 03 3d 5a 5c 7c 3d
       -0.0826455 -0.018757742 0.032211438 0.06161151
0002d0 12 8f 93 bd 91 af 34 3d a6 a3 bc 3c 7d c0 94 bd
       -0.07205023 0.044112746 0.023027252 -0.07263277
0002e0 b3 31 e2 bb 75 59 e8 bb e7 b5 4e 3c da d4 c2 bb
       -0.0069028973 -0.0070907422 0.012616611 -0.005945784
0002f0 8a 6c 8b 3d 28 41 8a bd 6d 37 15 3d ea 41 32 3c
       0.068078116 -0.06750709 0.03642981 0.010879973
000300 06 aa 2e bd c8 7f 82 bd 4b eb 32 3c 41 cf 14 bd
       -0.042642616 -0.063720286 0.010920356 -0.036330465
000310 5c 82 0b 3d b6 4e 02 3e 06 b0 69 bc 65 2f 08 bd
       0.034059867 0.12725338 -0.014263159 -0.033248324
000320 09 8e a6 bc 51 96 97 3d 19 c0 21 3d 1d 8b e3 3d
       -0.0203314 0.074017175 0.03948984 0.11110518
000330 4a 7e 50 3c a1 11 ce bc 0d 00 81 39 30 0b 13 bd
       0.012725422 -0.02515489 0.00024604835 -0.03589934
000340 9f 58 9b 3d e6 db 02 3e cd 61 8f 3c 39 89 0d 3d
       0.075852625 0.12779197 0.01750269 0.034554694
000350 e8 d9 11 bd 80 e6 82 3d 7f 58 25 3c 4d 8c 81 bd
       -0.035608202 0.06391621 0.0100919 -0.063255884
000360 53 b8 8d 3d 1a 78 da 3d 0b 13 15 bd e5 17 b4 3a
       0.06919923 0.10667439 -0.036395114 0.0013740031
000370 c2 34 86 bd 81 a2 7d bd f1 a7 43 3c a1 69 39 bd
       -0.065530315 -0.061922554 0.011941896 -0.04526675
000380 4f 2e 1d 3d ba 89 15 be 9e 9b 93 3c 5d bf 1c bd
       0.03837424 -0.1460332 0.01801854 -0.038268436
000390 b8 16 80 bc e6 07 8a bb a3 a1 88 bd 1a 7b 1b bd
       -0.015635833 -0.0042123673 -0.06671455 -0.037959196
0003a0 ba bd 0b 3e e7 45 58 3b e4 8d a5 3c 21 ad 17 bd
       0.13646594 0.003300065 0.02020926 -0.037030343
0003b0 75 cb 64 bd 1c e4 d9 bd ed 09 e2 3c 2c 73 46 bd
       -0.055858094 -0.106392115 0.027592624 -0.04844968
0003c0 8f cf 3e bc d6 85 dc 3d 9b a8 23 bd f2 40 7d bd
       -0.0116461655 0.10767715 -0.039955717 -0.061829515
0003d0 b7 e3 ec 3d f9 d5 64 3d 00 77 c9 bd 0b de 2a 3d
       0.11566871 0.055868123 -0.098371506 0.041715663
0003e0 c4 0c 47 3d fb a4 0f 3d a4 3a 50 bd 70 63 be bc
       0.04859616 0.035069447 -0.050837174 -0.023240775
0003f0 19 80 10 3e 45 9b bd 3b a7 87 33 bc d1 39 65 3c
       0.14111365 0.005786332 -0.010957635 0.013990835

bias f4 [64]
000000 4f 02 95 bd e3 16 07 bc 4d 91 12 bd d5 89 02 3d
       -0.07275831 -0.008245203 -0.0357831 0.031869728
000010 6b 2d ba 3c 43 4c 53 bb fb aa 8d bd 21 4b 6d bd
       0.022726735 -0.00322415 -0.069173776 -0.057932977
000020 9f 62 a4 bd 00 99 4e bc 34 c5 b1 3c b1 2a d0 3c
       -0.08026623 -0.01260972 0.02170048 0.025410982
000030 df 85 fd bc ee e5 de bc 77 9c 99 3d f1 a0 c1 3c
       -0.030947624 -0.027209248 0.075005464 0.023636313
000040 e0 eb 85 3d 2b 05 dc 3c 59 2d c2 bb 93 9d 21 bd
       0.0653913 0.026857933 -0.005925816 -0.039456915
000050 a4 18 99 bc bf be 1f 3d 06 16 bf bd 43 d6 45 3a
       -0.018688507 0.03900027 -0.093303725 0.0007546881
000060 0d 6b 55 bd 3a 78 00 3d b8 f4 04 3e af f1 1b 3d
       -0.052104045 0.031364657 0.12983978 0.038072284
000070 95 25 26 bd 93 85 b0 3c 45 24 93 3c e8 e6 c7 3c
       -0.040563185 0.021548068 0.01796163 0.024402097
000080 2b 8f 26 bc 80 d5 99 3b fb af aa 3d 36 23 59 3d
       -0.01016597 0.0046946406 0.08334347 0.053012095
000090 e6 3a 7e bd f1 d0 73 bc fe 66 cb bd bb 0c 37 bd
       -0.06206789 -0.0148813585 -0.099317536 -0.044689875
0000a0 24 0b 1a bd cf b2 20 3d dd bb 8f bd 6b 18 08 3d
       -0.03760828 0.039233025 -0.07018254 0.03322641
0000b0 13 b2 01 3d c2 a3 47 bc ae 0e 4e 3d 97 4e d1 3c
       0.031663965 -0.012185039 0.05030697 0.02555017
0000c0 13 8d 79 3d 95 5a b5 bd 4a c6 45 bd a1 e3 35 3d
       0.060925554 -0.08855168 -0.048284806 0.044406537
0000d0 05 4c 22 3d 20 cc 8b bd 59 ea 52 bd 57 94 8e bd
       0.03962328 -0.06826043 -0.051493023 -0.06961887
0000e0 1e 9a ab 3c 6a ce e7 3d 76 4e b1 3c ec fa 94 bb
       0.020947512 0.11318667 0.021643858 -0.004546514
0000f0 25 3c 90 bc e7 90 26 bd 7d 68 25 bd 0e 83 a8 bd
       -0.017606804 -0.040665533 -0.04038285 -0.08228122

weight f4 [64]
000000 08 b8 53 3f 35 ce 5d 3f 19 57 7e 3f d9 bf 63 3f
       0.82702684 0.8664277 0.9935165 0.8896461
000010 14 6d 7d 3f fe 32 59 3f c7 49 62 3f 80 38 80 3f
       0.98994565 0.8484343 0.88393825 1.0017242
000020 bd c7 7c 3f 5b 86 72 3f ca 77 8a 3f f6 d4 85 3f
       0.98742276 0.9473626 1.0817807 1.0455616
000030 c9 74 66 3f e4 04 6d 3f 3d b0 70 3f 45 7b 80 3f
       0.9002195 0.9258559 0.9401892 1.0037619
000040 60 44 7a 3f 9f 32 76 3f cd ba 69 3f c1 d2 6a 3f
       0.9776058 0.9617099 0.9130066 0.91727835
000050 84 fc 86 3f ef 27 82 3f 15 4f 7b 3f 6f 55 7d 3f
       1.0545812 1.0168437 0.98167545 0.98958486
000060 1c ba 6a 3f 5b a6 70 3f 1e d6 85 3f cc 06 88 3f
       0.9169023 0.9400384 1.0455968 1.0627074
000070 c7 92 7a 3f e0 93 6d 3f 5e c7 7d 3f 86 e8 70 3f
       0.97880214 0.92803764 0.99132335 0.941048
000080 2d 11 6e 3f 31 b0 8c 3f 33 88 65 3f 93 79 70 3f
       0.9299496 1.0991269 0.8966095 0.9393551
000090 6b 9a 77 3f fc 0b 49 3f ed e3 87 3f 17 95 7c 3f
       0.9672 0.7853391 1.0616432 0.98664993
0000a0 7b c4 61 3f f1 44 69 3f 7e d4 5e 3f 61 9c 6f 3f
       0.8819043 0.9112082 0.8704299 0.9359799
0000b0 01 dd 65 3f 7a a6 79 3f f4 75 6f 3f c0 f0 80 3f
       0.8979035 0.9751965 0.9353936 1.0073471
0000c0 86 ec 54 3f 0c 95 98 3f 7b 4f 8d 3f c5 d2 68 3f
       0.83173406 1.1920485 1.103988 0.9094661
0000d0 2f 9c 71 3f c4 3f 72 3f 09 08 62 3f 66 ce 63 3f
       0.9437894 0.9462855 0.8829351 0.88986814
0000e0 eb 43 85 3f f9 3c 72 3f c3 6d 5e 3f ed 6d 75 3f
       1.0411352 0.94624287 0.86886233 0.9587086
0000f0 5d 20 72 3f 49 32 59 3f 9d 27 7a 3f 48 5e 77 3f
       0.9458063 0.84842354 0.97716695 0.96628237

bias f4 [64]
000000 97 c8 10 3e 8b 24 27 be 48 39 ec be a7 84 98 be
       0.14139019 -0.16322534 -0.46137452 -0.29788706
000010 42 2f 8e be c4 43 97 be d0 a4 a8 be 67 7c 83 be
       -0.2777043 -0.2954389 -0.32938242 -0.2568085
000020 e9 69 df be cb 3d d1 be 92 19 ff bd e7 e3 a9 be
       -0.4363549 -0.40867457 -0.12456049 -0.33181688
000030 de 17 95 be 38 11 76 be 03 37 52 be df 47 64 be
       -0.29119772 -0.24030006 -0.20528798 -0.22293042
000040 93 bb 85 be da 65 51 be 28 27 71 be c8 46 2d be
       -0.2611967 -0.2044901 -0.23550093 -0.16921532
000050 cd 6f 89 be 42 d6 99 be 74 c9 90 be 24 99 c7 be
       -0.2684311 -0.30046278 -0.28278697 -0.38984025
000060 cd 3b b0 be ab d5 c5 be 30 34 97 be cf 05 87 be
       -0.34420624 -0.38639578 -0.29532003 -0.2637162
000070 d2 b5 aa be b1 48 bd be 58 16 6d be 75 87 93 be
       -0.33341843 -0.36969522 -0.23153055 -0.28814283
000080 d9 b9 98 be 9f 3b 57 be dd 16 97 be 85 56 44 be
       -0.2982929 -0.21018837 -0.2950963 -0.1917363
000090 8d d2 84 be dd 9b 00 be c2 ae cd be fa 1b d2 be
       -0.25941887 -0.12559457 -0.40172392 -0.4103697
0000a0 9d 5a bc be 73 b7 ef bd ca af c5 be 1a f6 95 be
       -0.36787882 -0.11704912 -0.3861068 -0.29289323
0000b0 27 04 bd be 49 b0 a4 be 60 5c b5 be 74 04 30 be
       -0.3691723 -0.32165745 -0.3542204 -0.17189199
0000c0 5e 39 a9 be f1 7d ef be 48 d2 c5 be d7 6c 96 be
       -0.3305158 -0.46775773 -0.38636994 -0.29379913
0000d0 af f8 8f be 30 f3 a7 be ee 5e 03 be 88 f7 92 be
       -0.28119418 -0.32802725 -0.12829182 -0.28704476
0000e0 03 38 a6 be 6c 95 93 be b0 cc be be c1 90 6e be
       -0.3246461 -0.28824937 -0.3726554 -0.23297407
0000f0 7e d6 bd be c1 5e 52 be 19 3b 89 be 3d af a0 be
       -0.37077707 -0.20543958 -0.268029 -0.31383696

running_mean f4 [64]
000000 dd fe 9a bd 79 ae 39 bc 0d 6d 0a bd b8 97 08 3d
       -0.075681426 -0.011333101 -0.033795405 0.033347815
000010 d2 32 be 3c 73 e6 80 ba 9e 68 82 bd 48 a0 5a bd
       0.023217592 -0.0009834304 -0.063676104 -0.053375512
000020 67 04 9d bd 93 81 1c bc 11 e3 b2 3c 51 36 c5 3c
       -0.07666855 -0.009552377 0.02183679 0.024073752
000030 4f ac 03 bd c9 ac eb bc d3 6c 9f 3d 3d 52 b6 3c
       -0.03214675 -0.028768914 0.077844284 0.022256011
000040 9e fb 83 3d 32 29 e8 3c 1d 8d dd bb 54 f0 20 bd
       0.064444765 0.028339956 -0.006761207 -0.039291695
000050 3c 36 a6 bc c1 3a 1b 3d 68 1c b8 bd c2 a0 d1 3a
       -0.020289533 0.03789783 -0.08989793 0.0015993344
000060 05 d0 62 bd 31 6e 0e 3d 6d be 04 3e 8e 54 23 3d
       -0.055374164 0.034773055 0.12963267 0.03987556
000070 51 be 35 bd 22 28 ca 3c 72 49 bf 3c f0 c8 cf 3c
       -0.044370953 0.02467734 0.023350451 0.02536437
000080 b8 91 59 bc 51 8b 96 3b 65 e9 ab 3d cf 7a 4b 3d
       -0.013279371 0.0045942445 0.08394126 0.049677666
000090 52 c2 89 bd 1d 51 5b bc fb 08 c5 bd ca ea 26 bd
       -0.06726517 -0.013386038 -0.096208535 -0.040751256
0000a0 0a 96 21 bd bf ec 0f 3d 7f b1 8d bd ca 69 f5 3c
       -0.03944973 0.035137888 -0.0691862 0.02995767
0000b0 4e f4 e7 3c 50 db 24 bc f8 a7 5a 3d 3a 44 b4 3c
       0.028314736 -0.010062054 0.053382844 0.02200519
0000c0 c6 30 78 3d ec 75 b3 bd 72 71 3c bd 98 50 2f 3d
       0.06059339 -0.08762726 -0.046006627 0.04280147
0000d0 cd 6d 36 3d 45 f7 91 bd bd 51 6e bd 0e e7 8b bd
       0.044538308 -0.07127241 -0.05818342 -0.068311796
0000e0 1b f1 c8 3c 16 c7 f1 3d b9 12 b5 3c e0 e4 fc bb
       0.02452903 0.11805551 0.022103654 -0.0077177137
0000f0 bc a7 8f bc 4a 96 17 bd a8 61 16 bd e1 83 a5 bd
       -0.017536037 -0.03700856 -0.036714226 -0.080817945

running_var f4 [64]
000000 f8 6c fa 3d f0 7c 05 3e 3f 10 fc 3d 3e 27 f0 3d
       0.122278154 0.13035941 0.12307786 0.11726235
000010 4c 3e 0e 3e 39 68 cb 3d 3f 3f 03 3e a0 08 e7 3d
       0.13890952 0.09931988 0.12817095 0.11280942
000020 28 6a e3 3d d6 98 f4 3d 2c d6 02 3e 82 7d e1 3d
       0.11104232 0.11943214 0.12777013 0.11010267
000030 2b 1a e0 3d 35 e7 f2 3d 79 f3 03 3e 84 1c f8 3d
       0.10942491 0.118605055 0.12885846 0.12114814
000040 d5 3b e0 3d b0 a6 06 3e 27 3f 05 3e c8 7f ef 3d
       0.10948912 0.13149524 0.13012372 0.11694294
000050 7a 7c b9 3d 33 da 00 3e 46 52 e3 3d b5 7f f1 3d
       0.09056945 0.12583236 0.11099677 0.11791936
000060 29 6a d9 3d 6b 48 dd 3d 22 e2 02 3e 05 85 01 3e
       0.106159516 0.10804828 0.12781575 0.12648399
000070 83 96 ed 3d b2 56 e9 3d a4 fc db 3d b2 ea de 3d
       0.116009735 0.11393489 0.10741547 0.10884608
000080 03 13 d7 3d d7 77 e9 3d 62 bb f8 3d c3 49 f5 3d
       0.10501673 0.11399811 0.121451154 0.119769596
000090 39 49 eb 3d e0 e7 fc 3d d8 7f f5 3d f5 8a f6 3d
       0.114885755 0.12348914 0.11987275 0.12038223
0000a0 bf af d8 3d 40 10 ef 3d 24 93 f4 3d a5 c4 fb 3d
       0.10580396 0.11673021 0.11942127 0.12293366
0000b0 8a 25 da 3d cb 68 ee 3d 68 f1 eb 3d ac dc dc 3d
       0.10651691 0.116410814 0.11520654 0.10784277
0000c0 c0 7b d3 3d 68 5a db 3d 85 c0 dc 3d f8 b9 fd 3d
       0.10326338 0.10710603 0.10778908 0.12388986
0000d0 fa 66 e0 3d 97 7a f5 3d 7c b6 f4 3d 41 3e 03 3e
       0.10957141 0.11986273 0.11948869 0.12816717
0000e0 35 b8 e2 3d 9f 06 dc 3d f2 1e d6 3d cb dd f5 3d
       0.11070291 0.107434504 0.10455121 0.12005194
0000f0 e3 8b cb 3d 7a 0a 05 3e 33 f9 f9 3d a9 e7 c9 3d
       0.09938791 0.12992278 0.12205734 0.09858639

weight f4 [64, 32, 4, 4]
000000 38 2c d4 3c a1 1f b7 bc f7 fe da bd bd 65 96 3c
       0.025899991 -0.022353949 -0.10693162 0.01835906
000010 0b 06 07 bd f2 06 88 3d d7 9c c0 bd e2 ea a7 3b
       -0.032964747 0.0664195 -0.09404915 0.0051244358
000020 0f a7 c9 bc 6f 7f a1 bc f4 58 e0 bc 48 8b d2 3c
       -0.024615793 -0.019714085 -0.027386166 0.02570118
000030 21 9e 9c 3d ef 48 90 bd 15 f0 03 be 55 05 df bd
       0.07647348 -0.07045161 -0.12884553 -0.10889689
000040 42 25 dd bc 11 ca 1b 3d b5 e9 80 bc e9 b7 55 3c
       -0.026995305 0.038034502 -0.01573644 0.013044336
000050 7b 54 1f 3c 8f 5e 8b 3c 6f 9c 5f bd 47 61 7d bc
       0.009724732 0.017012862 -0.054592546 -0.015465087
000060 4b 9c dc bc dd 81 4d bd 59 13 b0 bc db f2 eb 3c
       -0.026929995 -0.050172675 -0.0214936 0.028802326
000070 0d 1f 84 3d f6 e7 28 3c 45 81 bf bd af 95 db bd
       0.06451235 0.01030921 -0.09350828 -0.10721909
000080 af eb df 3b c8 a7 93 3c 1d d4 aa b9 b0 84 de bc
       0.0068335156 0.01802434 -0.00032582963 -0.02716288
000090 8c a1 73 bd 80 f6 59 3d 2e 7b 1a 3d f6 f9 c3 bd
       -0.059480235 0.053213596 0.03771513 -0.09569161
0000a0 5c 43 32 bd a1 03 94 3c ee 8b 9d bc 3b 4c 6a be
       -0.04352127 0.018068137 -0.019231763 -0.22880642
0000b0 62 4c 35 bd 2b 35 34 3d 86 20 9f bd ed 47 91 bd
       -0.044262297 0.043996017 -0.07769875 -0.07093797
0000c0 58 cd 16 3d ab 9f ef 3b ec 4a 99 3b 6a 6f cb bd
       0.036816925 0.007312735 0.004678121 -0.0993336
0000d0 69 a0 ab 3d dd 90 a5 3d 5d 87 81 3d 3f 82 a1 bd
       0.08380205 0.08084271 0.063246466 -0.078861706
0000e0 c3 eb ba 3d 8e b9 c8 3d 1e e4 ab bd 0a 91 b3 bc
       0.09126999 0.09801017 -0.08393119 -0.021919746
0000f0 12 2e 2c 3c d4 ff d2 3d 72 eb 49 ba 0b 38 70 bc
       0.010509031 0.103027016 -0.00077026256 -0.014661799
000100 d3 2f 3d 3c a5 69 a3 bd 26 9e 53 bc a4 d2 48 be
       0.011547047 -0.079791345 -0.0129161235 -0.19611603
000110 1c 59 49 3b 5c 28 d8 3b 41 01 c8 3c 97 2f 5d bd
       0.003072328 0.006596608 0.02441466 -0.054000463
000120 44 d3 72 3d 8a 8b f1 3d 5c f2 bb 3d 0d 3e eb bb
       0.05928351 0.11794193 0.09177086 -0.007179028
000130 f8 00 70 bd 9d 84 31 3d e9 bf a0 3d 0a 41 0f bc
       -0.058594674 0.04333936 0.07849104 -0.008743534
000140 ba 57 ff 3c ae ba d3 bc 71 18 2d 3d 67 ec 89 bd
       0.031169761 -0.025845852 0.042259637 -0.06734543
000150 01 d9 4b bc fb 5b 0a 3e ad 2e a5 bd 7a 3a 5c bd
       -0.0124418745 0.1351165 -0.08065543 -0.053766705
000160 93 9d 61 3c b1 35 9e 3d cf 3b 8e bd 48 06 12 be
       0.013770479 0.077250846 -0.06945001 -0.14260209
000170 55 4c 1e 3c d6 2d 00 3d 0e fb a2 bd 7c de 0b be
       0.009661754 0.031293713 -0.07958041 -0.1365909
000180 06 0a 3e bd 8c ad 84 3d c0 3e ed 3c fd a6 b8 bd
       -0.046396278 0.06478414 0.028960586 -0.090162255
000190 1e f1 05 3d cb da a6 3d 00 f7 02 3d ef c8 5e 3d
       0.03270065 0.081472 0.03197384 0.054390844
0001a0 fe 94 50 3b e6 0c f2 3c 60 a3 f5 bc 75 3b c2 bd
       0.0031827088 0.029547166 -0.02998513 -0.09483997
0001b0 0c ff 0e bd 8e 7e 3c 3c 75 06 41 bd 8b 9d 77 bd
       -0.0349112 0.011504782 -0.0471253 -0.06045298
0001c0 fa 15 cf 3d 74 c3 35 3c c4 be 5c 3c 5b 38 45 bd
       0.101116136 0.011093963 0.013473216 -0.048149448
0001d0 9e 44 78 bd b0 18 8a 3d 8b d5 9a bd 7f 1e 8c 3c
       -0.060612313 0.0674299 -0.07560261 0.017104385
0001e0 42 3d 2d 3b 09 69 db bd 89 da 2b 3d cf 16 8e bc
       0.0026434218 -0.10713393 0.04195646 -0.01734486
0001f0 a8 b9 56 3d a6 26 22 bd 55 8f ae 3c e1 b6 2d 3d
       0.05242315 -0.03958764 0.02130858 0.042410735
000200 f0 e1 70 3d e7 54 cc 3c b1 6a f2 bc 0e 85 96 bd
       0.05880922 0.024942828 -0.02959189 -0.07349597
000210 fd 23 88 3d 36 4c e3 3d 95 8e f2 bc db 7c 84 3c
       0.06647489 0.110985205 -0.029609004 0.016172817
000220 2c bb 59 bd 05 21 72 3d 11 2c b4 bd 68 d4 f0 3c
       -0.053157017 0.05911352 -0.087974675 0.029398158
000230 57 8a b1 bb 3b ad 99 3c c4 70 0f 3d 2e fe db bb
       -0.0054181027 0.01875936 0.03501965 -0.00671365
000240 13 9a 0b be a5 ff 57 3d a1 c0 b1 bd 05 c6 6c bd
       -0.13632993 0.052734036 -0.08679319 -0.057806034
000250 dd 4b 5f bc 98 9c 18 bd 14 55 54 bd ae 41 c1 bd
       -0.013628927 -0.037258714 -0.05183895 -0.094363555
000260 5c c7 b4 3d 24 37 07 bd b3 40 4b 3d 1f 3e ad bd
       0.08827087 -0.03301157 0.04962225 -0.08459114
000270 c9 cd 1c bc 3d 39 8a bd 39 96 80 bd c4 31 43 bd
       -0.009570547 -0.067491986 -0.06278653 -0.047654882
000280 4e 07 53 3c 0f 04 b3 3a 6e c1 20 bc ec b8 a9 3d
       0.01288016 0.0013657826 -0.009811742 0.08287224
000290 95 c9 8e bd 44 76 3d bc b8 da 0c bd 7a 2e 50 3d
       -0.069720425 -0.011563841 -0.034388274 0.050825574
0002a0 d9 a4 8b bc 4c 71 cd 3c 51 e8 20 bd a8 82 92 bd
       -0.017046379 0.025078438 -0.039284054 -0.07153827
0002b0 f5 12 20 bd ce 4d f6 bc 88 85 ba bb 01 1b e6 bb
       -0.03908058 -0.030066397 -0.0056921877 -0.007022262
0002c0 b9 c7 f2 bc c7 62 ce bc e9 8c 4f bd 33 90 0c 3d
       -0.02963625 -0.025193585 -0.05067149 0.034317207
0002d0 92 8f 95 bc a9 8a 82 bc c2 a2 68 3c 8d 3b 7c 3d
       -0.018256936 -0.015935259 0.014198961 0.06158023
0002e0 09 6f 18 bd 42 2d d7 3c 66 5d f4 bc 0a 36 7f bc
       -0.037215266 0.026266698 -0.029829692 -0.015576849
0002f0 39 d2 4b 3d dd 06 51 bb 96 de 67 bd 1b 4c 57 bd
       0.04976103 -0.003189496 -0.05660876 -0.052562814
000300 7f da 5f bd 57 51 89 3d 70 4a 8a bd 04 c7 82 bb
       -0.054651733 0.067049675 -0.06752479 -0.0039910097
000310 92 0f cf 3c f7 89 9f bc fa bc 99 3d de 6e 11 bd
       0.02527598 -0.019474966 0.075067475 -0.03550612
000320 25 de cb 3b 73 36 03 3d 74 d0 92 bb 4c 7a 34 be
       0.00622155 0.03203435 -0.004480416 -0.17624778
000330 41 e0 55 bd 76 a2 5d 3d a3 e4 b4 3c d7 3b df 3b
       -0.05221582 0.054110013 0.022081679 0.0068125534
000340 c6 9f 27 bc 59 ab f5 bc 8e ec 49 bc ca bc bd bd
       -0.010230964 -0.029988931 -0.012324465 -0.09264524
000350 39 9d 47 bc 2e d9 09 bd 1a d3 98 3c 23 9c b2 bc
       -0.012183481 -0.033654384 0.018655349 -0.021802967
000360 c3 d2 37 bb 50 c5 93 3b fb ee 07 be 59 a7 ed bd
       -0.0028049208 0.0045096055 -0.13274758 -0.11604185
000370 5b 45 27 bd b0 c6 30 bd f4 12 dc 3c bd e6 72 bd
       -0.040837627 -0.043158233 0.026864506 -0.05930208
000380 bb 2c 9c bb 4f 7c 70 3c 0a ef 9f bd 23 11 80 bd
       -0.0047660745 0.014678075 -0.07809265 -0.062532686
000390 69 18 7c bc 08 d5 e2 3c 3a 35 e7 bb e3 c3 05 bc
       -0.015386679 0.027689472 -0.0070559056 -0.008164379
0003a0 14 b1 2b 3d e6 cb 65 3b 15 8e f4 3c 0c 51 65 bd
       0.04191692 0.003506416 0.029852906 -0.055985495
0003b0 69 88 17 bd cf 9d 9d bd b3 55 97 bd a0 e1 da bd
       -0.036995325 -0.07696115 -0.07389393 -0.10687566
0003c0 e9 04 dc 3c 6e 4a af bd 53 b4 05 3e 37 7b cb 3c
       0.02685781 -0.08559118 0.1305707 0.024839027
0003d0 19 82 ed bd 5a 18 cf 3d 98 79 ba 3d f7 93 fa 3d
       -0.1159708 0.101120666 0.091052234 0.12235253
0003e0 89 af d5 bd 16 88 cc bd bb 70 b1 3d 09 9f 91 3c
       -0.10433871 -0.09986894 0.0866408 0.01777603
0003f0 30 90 83 bb 6b da 8e 3c c5 21 31 3d 06 6b 4d bc
       -0.004014991 0.017438134 0.043245096 -0.012537723

weight f4 [32]
000000 73 45 7f 3f cc ff 55 3f f3 3a 95 3f cd 26 71 3f
       0.99715346 0.8359344 1.1658615 0.9419983
000010 6f eb 5e 3f 9d 9a 76 3f 68 63 d8 3f 4b 6e 25 3f
       0.87077993 0.9632967 1.6905336 0.6462142
000020 e4 1f 57 3f bc e1 76 3f a9 a1 cf 3f 90 99 d1 3f
       0.84033036 0.96438193 1.622121 1.6374989
000030 57 e3 7b 3f 3e 24 4d 3f eb 1d 89 3f cd 56 46 3f
       0.9839377 0.80133426 1.0712255 0.774762
000040 6e e9 42 3f 05 b9 5a 3f d8 ef 23 3f bc bd 46 3f
       0.76137435 0.8543857 0.6403785 0.7763326
000050 04 57 3a 3f ce e2 49 3f 7c 82 4e 3f 36 71 46 3f
       0.72789025 0.788617 0.80667853 0.77516496
000060 85 a8 4d 3f fd d1 51 3f 3c 32 4a 3f 18 04 45 3f
       0.80335265 0.8196104 0.789829 0.7695937
000070 8b 03 4d 3f 25 3a b4 3f 32 8b 52 3f 6b e6 3c 3f
       0.8008353 1.4080244 0.82243645 0.7378909

bias f4 [32]
000000 dd 8e 75 be d7 59 c4 be dd 52 31 be ae 4b ec be
       -0.2398028 -0.38349792 -0.17316766 -0.4615149
000010 22 c9 7e be ef 3b 24 bf fe 8c 80 3e 4e 16 7f be
       -0.24881414 -0.6415395 0.25107569 -0.24910852
000020 d3 a7 ae be 96 70 86 be 0f 77 21 3e 7d d9 9c bc
       -0.34112415 -0.2625777 0.15768073 -0.019146675
000030 74 5d 9d bd 22 cb d2 be 8b fb e5 bd 2a 51 74 be
       -0.076838404 -0.41170603 -0.11229619 -0.23859087
000040 05 44 5c be 7b 17 f1 be 38 e8 65 be 74 71 ce be
       -0.21510322 -0.47088227 -0.22451866 -0.40320933
000050 03 a9 9b be 92 a5 cc be 4f 74 30 be b2 28 e3 be
       -0.30402383 -0.3997007 -0.17231868 -0.44366986
000060 df 12 f0 bd 68 2f e4 be 54 46 98 be 8c a6 78 be
       -0.117223494 -0.44567418 -0.29741156 -0.24282283
000070 7a 55 64 be 64 66 10 3e 82 2d b0 be 7d dc ce be
       -0.22298232 0.14101559 -0.3440972 -0.40402594

running_mean f4 [32]
000000 14 d2 1e bf 6a 41 02 bf 30 07 fb be 54 de 21 bf
       -0.62039304 -0.50881064 -0.4902892 -0.6322987
000010 d9 57 bb be 77 0e 01 bf c8 1e ca bd d9 a6 d0 be
       -0.3659046 -0.50412697 -0.09869152 -0.40752295
000020 2e 6a 18 bf ca 4f 15 bf f6 a6 9b bd 82 8a 10 be
       -0.5953702 -0.58324873 -0.07600205 -0.14115337
000030 47 af d3 be da 95 08 bf 3b dd a7 be 6a 78 5f be
       -0.41344664 -0.53353655 -0.32785973 -0.21823278
000040 1e 9c 26 bf 8e ec 06 bf ee f2 59 bf c7 24 17 bf
       -0.65081966 -0.52704704 -0.85136306 -0.5904049
000050 42 7b 54 bf 14 8d f7 be 7f 6f 38 bf 1b 4c eb be
       -0.83000576 -0.48349822 -0.7204513 -0.459565
000060 7e fe d1 be ff 1c 02 bf 96 33 31 bf 19 a9 62 bf
       -0.41014475 -0.50825495 -0.6921934 -0.8853927
000070 1a 31 3f bf 75 81 79 be fe 98 f6 be ba db ea be
       -0.746843 -0.2436579 -0.481636 -0.45870763

running_var f4 [32]
000000 e2 ee 1d 3f 2e 23 00 3f 07 9f 32 3f 7f c4 18 3f
       0.6169263 0.5005368 0.69773906 0.5967483
000010 00 e0 1b 3f 58 2b 02 3f 4b 0c 41 3f 97 2e f4 3e
       0.6088867 0.5084739 0.7540938 0.47691795
000020 67 87 cb 3e 27 91 3c 3f 63 6b 35 3f 5d fa 2e 3f
       0.3975174 0.73658985 0.70866984 0.68350774
000030 3b 0a 06 3f f6 76 13 3f f9 09 0e 3f ee a1 2c 3f
       0.5235936 0.57603395 0.5548397 0.67434585
000040 a6 ee ef 3f f4 0e ec 3e ac de 82 3f 13 54 10 3f
       1.8744705 0.46105158 1.0224204 0.5637829
000050 3e 37 17 3f 52 b8 05 3f 6a f9 62 40 6a 4c c8 3e
       0.5906867 0.52234375 3.546473 0.391208
000060 9b 1b 94 3f 40 41 12 3f ba d2 46 3f 9e 7a 00 3f
       1.1570925 0.57130814 0.77665293 0.501871
000070 4e 67 41 40 87 44 58 3f c0 09 ec 3e 6c f9 0b 3f
       3.0219302 0.84479564 0.4610119 0.5467746

weight f4 [32, 16, 4, 4]
000000 41 15 85 3d d7 e5 d3 bd 98 fc 00 be 1b 6b 7d bb
       0.064981945 -0.10346573 -0.12596357 -0.0038668576
000010 d1 40 01 be 28 11 b4 be 9a 53 07 be 9e 94 fa 3b
       -0.12622382 -0.3516934 -0.13215485 0.007647111
000020 34 4f 68 bc 9c e1 66 bc 66 ea ab 3c 06 9c e5 3c
       -0.01417904 -0.014091875 0.020985793 0.0280285
000030 25 23 16 3d 0b 2a 8e 3c a2 59 b0 bc 22 30 21 bb
       0.03665461 0.017354032 -0.021527115 -0.002459534
000040 9c df 7f 3d 60 0b d8 bd 0c b8 6b be b7 ee 9f bd
       0.06246911 -0.105490446 -0.23019427 -0.07809203
000050 fb 74 cb bd a5 0a 3f be d1 22 01 bd 86 5f 6c 3c
       -0.09934422 -0.18656404 -0.031527344 0.014427071
000060 4f 2b 54 3c ae bc e8 3b df cd 30 3d df ec 3b ba
       0.012949779 0.0071025705 0.043165084 -0.00071687804
000070 70 bf 0d bd 7b bd f9 bc b9 f3 ad 3c 6d ec d4 bb
       -0.034606397 -0.03048586 0.02123438 -0.0064979107
000080 27 31 47 3c a6 51 89 bb 2a 3a 43 bd d7 e4 86 3c
       0.012157715 -0.0041906415 -0.04766289 0.016466541
000090 9b e9 8f be 51 00 8f 3c f1 70 7a be dc ca 3c be
       -0.28107914 0.017456206 -0.24457146 -0.1843676
0000a0 c4 4c a4 3c 75 f4 8b 3b 52 16 12 bd d1 7b 9e 3c
       0.020056136 0.004271085 -0.035665818 0.01934615
0000b0 a0 07 ad be 39 50 93 bc 46 6e a4 be bb a8 2c 3d
       -0.3379488 -0.01798259 -0.32115382 0.0421531
0000c0 da eb 83 bc 0d 8b 05 be 5c 56 6a be 4a ca 54 bd
       -0.016103674 -0.13041325 -0.22884506 -0.05195073
0000d0 73 ae 85 bd ab 1e 03 bd cb 4d d5 bd 38 8e 6a 3c
       -0.06527414 -0.03201167 -0.104152285 0.014316134
0000e0 08 9c c5 bd dd 55 35 3d ad e5 39 bc 76 48 a0 bc
       -0.09648901 0.04427134 -0.011346263 -0.019565802
0000f0 dc 3a 37 bd 34 9a 8b bc 20 a8 d9 3c 5a fe a5 3a
       -0.044733867 -0.017041303 0.026569426 0.0012664304
000100 49 d6 3a 3d 5a 5d 2c be 92 0c 45 be 57 be b2 3b
       0.045614514 -0.16832486 -0.19243076 0.005454819
000110 a0 a2 f2 bd c4 10 24 bb cb b1 70 be 09 6e 89 bc
       -0.118474245 -0.0025034407 -0.23505323 -0.016776102
000120 a9 16 63 3c e6 2e 7a bc e0 11 b1 bb 68 6a 13 3c
       0.013860383 -0.0152699705 -0.005403742 0.008997537
000130 ff 02 21 be 02 8c 62 bc 28 36 2d be 1b e9 35 bb
       -0.15723799 -0.013827326 -0.1691519 -0.002775735
000140 c7 23 26 3d fe 74 22 3b c4 71 2b be 13 a5 42 bd
       0.040561464 0.002478897 -0.16742617 -0.04752071
000150 9b ce e2 bc f5 12 73 be a9 fb 17 be af 5f e4 bc
       -0.027686408 -0.237377 -0.14842094 -0.027877657
000160 b7 d0 fc 3c 83 47 2e bc df f6 d5 3c 03 a3 44 3c
       0.030861242 -0.010637167 0.026118694 0.012001756
000170 90 37 ac 3b 2d fb ab 3d 5b 6f d8 3b d5 82 10 bd
       0.005255647 0.08397517 0.0066050715 -0.03528102
000180 c7 69 b2 3c cc 00 ee bc 37 82 a8 3c ff 4a 9c b9
       0.021778954 -0.029053114 0.020569904 -0.00029810515
000190 d5 38 42 be f5 cd 94 be 56 7c 32 be 10 90 8d be
       -0.18966992 -0.29063383 -0.17430243 -0.27648973
0001a0 dd 0b 71 3c 02 98 f8 bc a8 e1 f9 bc 4d 5e 91 bc
       0.014712301 -0.03034592 -0.03050311 -0.017745161
0001b0 fe da ac 3c a3 3a 46 be bb ea 9c 3d 94 3a 1b be
       0.021100517 -0.19358306 0.07661959 -0.15159065
0001c0 29 52 a0 be 70 9b d3 bc d0 e4 7b be 9e ca 99 bd
       -0.31312683 -0.025830954 -0.24599004 -0.07509349
0001d0 99 8b 88 3c 45 d6 94 bd d1 42 59 3d 13 a8 9a bc
       0.016668128 -0.07267431 0.053042237 -0.018878972
0001e0 3c 4d 24 be e8 4f fa bb 29 8f 42 bd d6 52 9f bd
       -0.16045088 -0.00763892 -0.04749981 -0.077794716
0001f0 e1 83 54 bc 64 f9 82 ba c6 9a 03 3d 5f 8f 33 bd
       -0.0129708955 -0.0009992537 0.032130025 -0.0438379
000200 da 78 f0 3c e5 a9 ac bd 60 7c 27 be bc af d1 bd
       0.029354502 -0.08430842 -0.16356039 -0.10238597
000210 29 ae 9a bc 8f 25 41 be c9 79 32 be a3 32 ba bc
       -0.018881874 -0.18861984 -0.1742927 -0.022729224
000220 29 d1 32 bb c4 55 0a 3d 5d 5a 95 bc cd 3c 22 bd
       -0.0027285314 0.0337732 -0.018231565 -0.039608765
000230 f7 36 d9 3b 9c 2d 25 ba ff 20 55 3d b8 85 a6 bc
       0.006628867 -0.0006301047 0.05203342 -0.020327434
000240 a7 e8 19 3d 4f ea 5c be c1 07 f7 bd 2a 73 8c bb
       0.03757539 -0.21573757 -0.12062026 -0.0042861896
000250 6d fc 84 bd 3a 8b 8e be 0e 41 03 be f6 0d df bc
       -0.06493459 -0.27840596 -0.12817785 -0.027228337
000260 3b dc 4e bc 79 e4 e7 3c f9 7c da 3c ad 6a cb 3b
       -0.012625749 0.028307186 0.02667092 0.006207785
000270 7b 80 0a 3d 7a 8b f4 bb 02 02 24 3b 34 66 56 bc
       0.033813935 -0.007462916 0.002502561 -0.013085891
000280 86 a8 85 bd aa 36 37 bd 4c ed 8d bd b2 4e f5 bc
       -0.06526284 -0.044729866 -0.069300264 -0.029944751
000290 08 b9 ff bd c9 aa 90 bd 97 ae c8 3b 57 80 83 3c
       -0.12486464 -0.07063825 0.0061243284 0.016052408
0002a0 72 3b c9 bd 76 c4 32 bd c0 2b 83 b9 dd a6 c0 bd
       -0.098257914 -0.04364439 -0.00025018863 -0.09406827
0002b0 29 f0 11 3c 46 ee c2 bc 16 85 75 bd 69 ce 5d bc
       0.008907356 -0.023795258 -0.059941374 -0.013537982
0002c0 a8 cf c0 bc 1f b1 4b 3d e7 a1 52 3c f6 da 54 ba
       -0.023536518 0.049729463 0.012855983 -0.0008119786
0002d0 94 b8 94 be 4c a2 5f 3d 1a f3 7d be 24 16 f2 bd
       -0.29047072 0.054598138 -0.24799767 -0.11820629
0002e0 1d 6d 1e bd 2a 02 22 bd 71 f8 45 bd 79 07 23 3d
       -0.038678277 -0.039552845 -0.048332635 0.03980205
0002f0 f6 4c b0 bb 7d 5e 42 3d f5 43 06 bd 3e 67 f5 3d
       -0.005380268 0.047453392 -0.032779653 0.119825825
000300 f4 c3 29 3c 14 f5 4a 3d 76 4a 06 bc 0b 61 5a bd
       0.01036166 0.04955013 -0.008196464 -0.053315204
000310 c1 f0 88 bd b3 f5 a2 be 43 98 10 be 16 37 ec bc
       -0.06686545 -0.3182808 -0.14120583 -0.02883486
000320 47 ab 0c bd 1b 29 8d 3c 38 3f ce 3c f7 0d 82 3b
       -0.03434303 0.017231515 0.02517663 0.00396895
000330 b5 c4 52 bd 55 53 c1 bb b4 2f 4d bd 3a b0 bd 3c
       -0.051457126 -0.0058998265 -0.05009432 0.02315532
000340 df ec f9 3c 47 a0 b7 bc df 77 b0 bd c4 94 33 3c
       0.030508457 -0.022415293 -0.086166136 0.010960761
000350 45 ad b5 bd ef 27 c0 be f0 b6 11 be 58 0f db 3c
       -0.08870939 -0.37530467 -0.14229941 0.026740715
000360 4e a1 21 be 07 2e e9 bd f1 5f ad bc 76 76 21 3c
       -0.15784189 -0.11385732 -0.021163912 0.009854903
000370 64 1f 80 3d 74 51 8e 3d 73 6b 21 3c 25 58 c0 bc
       0.06255987 0.0694913 0.009852278 -0.02347953
000380 06 65 04 be 2d 76 ca be b5 2f a0 bd 45 a1 64 3a
       -0.12929162 -0.39543286 -0.078215994 0.0008721541
000390 08 25 7c bd 7e 8c 4f bd 47 e5 08 bd f8 3a ea bb
       -0.061558753 -0.050671093 -0.03342178 -0.007148143
0003a0 79 0c 80 3c b7 25 9b 3c d5 d5 ab 39 85 38 62 bc
       0.015630947 0.018938882 0.0003277498 -0.013807421
0003b0 32 9f ad bc 8e 10 3f bd dc fb e4 bc 90 ac 28 bd
       -0.021194074 -0.046646647 -0.027952127 -0.041180193
0003c0 2d a6 74 3d 1d 79 57 be d8 ec 26 be c5 50 87 bc
       0.05972879 -0.21042295 -0.16301286 -0.016518006
0003d0 eb fe 20 bd c1 9c 2a be 65 fd 96 bd ac f6 3a bc
       -0.03930561 -0.1666136 -0.0737255 -0.01141135
0003e0 00 34 88 3c c8 ae ca 3b 40 37 39 3c c7 95 7d 3b
       0.016626358 0.0061853863 0.0113046765 0.003869401
0003f0 41 c9 cb 3c 26 66 fa bb 8c e0 a3 bb fe 15 5e 3c
       0.024876239 -0.0076415716 -0.0050011333 0.013555048

weight f4 [16]
000000 29 c1 84 3f f9 e8 4c 3f c4 26 26 3f d4 21 27 3f
       1.0371448 0.8004299 0.649029 0.6528599
000010 10 27 23 3f 68 28 48 3f 8e e4 2a 3f 5e b5 3d 3f
       0.6373148 0.78186655 0.66754997 0.7410487
000020 ed 94 42 3f d7 dc 81 3f 88 55 1a 3f 47 f8 1e 3f
       0.7600849 1.014552 0.6028676 0.6209759
000030 c6 52 49 3f ee 55 48 3f 2a 24 7a 3f 78 f4 7c 3f
       0.7864193 0.7825612 0.9771143 0.9881053

bias f4 [16]
000000 7a f2 45 bf e8 fa 35 bf 60 74 95 be 92 b8 0a bf
       -0.77323115 -0.7108598 -0.2919035 -0.5418788
000010 8d 35 dd be e1 ed 1b bf cb 14 8b be 73 10 85 be
       -0.43204919 -0.6090985 -0.271643 -0.25989112
000020 f4 52 d8 be 17 49 61 bf 3c bc b1 be 9a 19 a3 be
       -0.42250788 -0.8800215 -0.34713924 -0.3185547
000030 e7 d2 14 bf a3 12 1b bf 4d ce 1b bf b7 0f 29 bf
       -0.5813431 -0.6057531 -0.60861665 -0.66039604

running_mean f4 [16]
000000 99 74 99 bf 83 16 66 bf 73 66 eb bf 03 5b d8 be
       -1.1988708 -0.898781 -1.839064 -0.42256936
000010 4f 72 a1 bf 4a 77 92 bf 66 0d cc bf 54 19 0b c0
       -1.2613009 -1.1442654 -1.5941589 -2.173421
000020 88 aa 96 bf 23 76 69 bf 3c fc 2b bf 87 df a2 bf
       -1.1770792 -0.9119589 -0.67181754 -1.2724465
000030 05 bf 95 bf fa 8b 69 bf 09 e3 9f bf 68 97 94 bf
       -1.169892 -0.9122921 -1.2491161 -1.1608706

running_var f4 [16]
000000 50 ee b1 3f b5 6f 8d 3f d9 c0 2a 41 fb 43 1e 3f
       1.3900852 1.1049715 10.672082 0.6182248
000010 ec 58 2e 40 62 20 a5 3f df ca fa 40 f4 30 2e 41
       2.7241774 1.2900507 7.8372645 10.886951
000020 6f 6e b8 3f 49 6d 6e 3f ed 32 4f 3f 2f 6e 7d 40
       1.4408702 0.93135506 0.8093708 3.95985
000030 ac 0b cb 3f c3 b4 87 3f fd f6 09 40 21 e8 d8 3f
       1.5862937 1.0602039 2.1557 1.694584

weight f4 [16, 8, 4, 4]
000000 ed 7f cb 3c e7 51 0e bd fa 07 b7 3b 9f 7e 27 bc
       0.024841273 -0.034746077 0.0055856677 -0.01022306
000010 32 bd f9 3c 9d 77 66 3d 31 29 95 bc f0 ab 15 b8
       0.030485723 0.056266416 -0.018208118 -3.5684498e-05
000020 47 47 f4 3c e1 29 5a 3d bc a3 8c bd d7 11 aa bb
       0.029819144 0.053262595 -0.06867167 -0.005190115
000030 ed 80 51 3b 70 45 0d 3d aa be 04 bd f2 b3 aa 3b
       0.0031967715 0.03449005 -0.032408394 0.0052094394
000040 3c da 6d ba 25 50 9c bc bf 5c 5d bc 84 dd db 3a
       -0.0009073352 -0.019081185 -0.013510882 0.0016774391
000050 1c 69 2b 3d ef 34 15 3e b8 a2 16 3e 73 ca 45 3d
       0.041848287 0.14570974 0.1471051 0.048288774
000060 97 b6 ab 3c 6f 1f 82 3d 28 e5 34 3d 71 d0 a4 bc
       0.020961089 0.06353652 0.044163853 -0.020118924
000070 78 6f 26 3c 9c 66 57 3d 9a 5c 5a bc 07 91 12 3d
       0.010158412 0.05258809 -0.013327742 0.03578284
000080 72 90 ea 3c c9 bd e6 3c b4 2d 06 3c 12 ce d1 bc
       0.02863333 0.028166668 0.008189607 -0.025610957
000090 75 1f f1 3a c6 04 e0 3c b7 3f 82 3d e1 22 57 bc
       0.0018396216 0.027346026 0.06359809 -0.013130874
0000a0 97 56 b7 3c b2 81 44 bd eb 2d eb bd d4 c8 77 bd
       0.022380156 -0.04797525 -0.114833675 -0.06049426
0000b0 a0 b5 6f bc 57 c5 cf ba 48 f6 3d 38 0d 81 5b bc
       -0.014630705 -0.0015851659 4.529048e-05 -0.013397467
0000c0 9f 5f 02 3d 84 96 87 3c e2 2c 2a bc ea f5 18 bc
       0.031829473 0.016551264 -0.010386677 -0.009335974
0000d0 e6 2f 17 3c fb 30 1a 3d 72 4c 18 3d 68 75 bc bc
       0.0092277285 0.037644368 0.03718228 -0.023005202
0000e0 f6 74 48 3c e9 7c 6b bd b8 c6 8b bd 9e d3 b6 bc
       0.012234917 -0.05749217 -0.06825012 -0.022317704
0000f0 3e 6c ab 3b 24 97 49 bc 6e ff b7 3c 22 f1 14 bc
       0.0052314093 -0.012304101 0.022460666 -0.009090694
000100 a7 fd c7 3b 50 97 19 bd 5c 3a 9b bc 85 c0 5b bb
       0.0061032358 -0.03749782 -0.018948726 -0.0033531499
000110 ea 27 22 3d b9 dd fe 3d e9 6a c9 3d b5 b0 28 3d
       0.039588846 0.12444634 0.098348446 0.041184146
000120 97 3c 5e 3d e2 07 5e 3d f4 2d a0 be 2b b0 34 3d
       0.054257 0.054206736 -0.3128506 0.04411332
000130 8a b9 d1 3c aa 6e 1a 3d 18 9c 09 3c 8d 6a 36 3c
       0.025601167 0.037703194 0.008399032 0.011133802
000140 55 fd c4 3c c6 f6 85 bc f0 84 3a bd 62 68 0c 3b
       0.02404658 -0.016353022 -0.045536935 0.0021424522
000150 9e 31 ad 3c e7 20 0a 3d f6 d1 f8 3b 7a 06 2a 3c
       0.021141823 0.033722784 0.0075933887 0.010377521
000160 9f 2e e3 3b 8f 0f 93 bd 5d 10 d8 bd 2c d2 8d bc
       0.006933048 -0.07180702 -0.10549996 -0.017312132
000170 72 69 a7 3c 96 f8 bc bb 15 3b 83 bc 03 2f c1 3b
       0.020436022 -0.0057669384 -0.016019383 0.005895497
000180 40 96 7c 3b 99 14 72 bc df 49 10 bc 5d 68 09 bb
       0.0038541704 -0.014775419 -0.008806675 -0.0020966746
000190 fc 39 91 3c c4 77 35 3d 23 a7 08 3d 0e 3d 80 3c
       0.017727844 0.04430367 0.03336252 0.015654113
0001a0 56 b1 de 3c 61 66 45 3c 3b 4c 69 3f 96 b5 c7 3b
       0.02718417 0.012048335 0.91131943 0.006094645
0001b0 29 39 82 3c de 67 07 3d 04 23 81 bd 35 d9 ef 3b
       0.015896397 0.03305804 -0.06305507 0.0073195943
0001c0 b9 67 3e bc 04 3b 1d 3c 38 7d a1 bd d2 6f 2a 3c
       -0.011621409 0.00959659 -0.07885212 0.010402637
0001d0 1e 91 57 3d 1a 5e 80 3b ce f0 3d 3e c2 69 12 3d
       0.05262863 0.003917468 0.18548891 0.03574539
0001e0 31 b4 65 3c d5 61 9b 3d 69 83 45 3d 16 96 90 bc
       0.014020012 0.07587019 0.048221026 -0.017649692
0001f0 20 05 3a 3c c9 6b 89 3d 7f b7 2b bc 0b 81 4c 3d
       0.011353761 0.067100115 -0.010480761 0.049927752
000200 40 a1 d2 3b af f3 ab bc 4b 8a 12 bd bc 72 2d bc
       0.006427914 -0.02099022 -0.035776418 -0.010586437
000210 2b d7 86 bd a9 2d a1 bd 50 33 2a 3c 99 f2 6b 3d
       -0.06584009 -0.07870037 0.01038821 0.057604406
000220 6d 92 82 3d 95 67 9d be a0 0e 01 be 1d e1 45 3d
       0.06375585 -0.3074309 -0.12603235 0.048310388
000230 a9 b8 9c 3c 72 f1 c8 3c d1 a2 63 3c 13 c4 ec bc
       0.019131022 0.024529193 0.013893799 -0.02890209
000240 85 6f 97 bb 15 ab 89 bd 38 10 0e bc db 7e 52 3c
       -0.0046214485 -0.067220844 -0.008670859 0.0128476275
000250 98 a0 23 bd 6a 19 9d 3e b6 5f a3 3c 0d b1 bc 3c
       -0.039948076 0.30683452 0.0199431 0.023033643
000260 b2 db 51 3d 84 1b 04 be f9 95 3e 3e 26 1f 06 bd
       0.05123491 -0.12901121 0.18611898 -0.03274455
000270 af c7 58 bc f5 50 16 3c 6e 7b 3a 3d b0 9e 74 bc
       -0.013231202 0.009174575 0.045527868 -0.014930412
000280 5b a0 46 3c e9 40 a2 3c 71 ca 36 3b 77 98 4b bb
       0.012123193 0.019806342 0.002789166 -0.0031066218
000290 cf 00 16 3b 1a d6 9a bc 61 f2 3b 3d 58 84 bf 3b
       0.0022888666 -0.01890092 0.045885447 0.005844634
0002a0 ca ea 03 3c ae f3 e8 3d fd fa 9a bc d3 1b 3e bd
       0.008051584 0.11374603 -0.018918509 -0.046413254
0002b0 90 e1 06 bd 6c fa 45 bd 7e 6b cd 3c fc f2 46 bd
       -0.032929957 -0.048334524 0.02507567 -0.04857157
0002c0 76 7f c8 3b bc ab 3f 3c 01 48 fa bb 17 eb fa 3b
       0.00611871 0.0116986595 -0.007637978 0.0076574194
0002d0 41 a5 e2 3c 95 13 60 bb dd 15 10 bd cb be 7f bc
       0.02766669 -0.003419136 -0.0351771 -0.015609453
0002e0 95 29 b3 3c b9 b6 5e 3d 63 ba 0a be 86 af 06 bd
       0.021870414 0.054373477 -0.13547663 -0.032882236
0002f0 9d 11 b2 bc 6b 51 04 bd 1a 99 cc 3c 3c 46 3b bd
       -0.021736914 -0.03230421 0.024975348 -0.045721278
000300 50 a7 23 bb e7 39 a7 bd 23 c1 bf 3b f8 91 db 3c
       -0.0024971552 -0.08165341 0.005851881 0.026803002
000310 28 29 52 bd 2a ca 8e 3e 09 d6 ab 3c bb 13 08 3a
       -0.05130878 0.27888614 0.020976083 0.00051909284
000320 f6 75 70 3d 3d 8a 19 be 4a 39 e4 bd ef aa af 3c
       0.058706246 -0.1499414 -0.111437395 0.021443812
000330 98 16 ff bc c8 e4 6f bb 46 dd 82 3c 1d e2 cd bc
       -0.031138703 -0.003660487 0.015974652 -0.025132233
000340 c0 40 a2 3c 7e 9a a2 3b 2b 02 cc bc bf 0a 58 bc
       0.019806266 0.0049622646 -0.024903378 -0.013186156
000350 9a d9 e4 ba 35 ff ac 3c 92 64 b4 bd 24 2c e9 3c
       -0.001745987 0.021117786 -0.08808245 0.02846343
000360 a6 c8 3f bd 67 ea 82 3d 47 e4 a8 3b 79 54 03 bd
       -0.046822213 0.06392365 0.005154166 -0.03206298
000370 8a 00 4d bc 5c 31 88 bd 06 75 b4 bc b7 6b 46 bc
       -0.012512336 -0.066500396 -0.022028457 -0.012110642
000380 28 da df b8 d6 d7 18 bd 5b ee 97 3b 41 d9 4d 3c
       -0.000106741034 -0.037315212 0.0046365685 0.012564004
000390 89 d7 a4 bc 98 2b db 3d 69 a6 1c 3b 55 cc 89 3b
       -0.020122306 0.10701674 0.00239029 0.0042052665
0003a0 b2 c8 cb 3c 5e 96 5d bd c3 c9 0d be bf 06 b8 3b
       0.024875972 -0.05409848 -0.13846497 0.0056160386
0003b0 9f ef 90 bc 27 e4 38 ba b7 24 07 be bf b7 d5 3c
       -0.017692385 -0.00070530403 -0.131976 0.026088594
0003c0 5e 0e 45 bc 0e dd 1c bc 73 fb 67 bd a9 e5 43 b9
       -0.012027351 -0.009574188 -0.056636285 -0.00018682204
0003d0 de 40 7b 3c 4c 4d df 3c 50 55 96 3b ce 0a da 3c
       0.01533529 0.027258538 0.0045878068 0.02661648
0003e0 16 61 35 3d 56 0f 16 be eb 41 62 3e 7b 77 2b bd
       0.04428204 -0.14654288 0.22095458 -0.041861992
0003f0 f0 05 3b bc 7a d4 3d 3c b2 fb 3a 3d e7 d2 a1 bc
       -0.01141499 0.011586303 0.04565019 -0.019753886

weight f4 [8]
000000 f1 4f 83 3f 5c 4f 72 3f 69 bd 48 3f c5 55 3e 3f
       1.0258771 0.9465234 0.78414017 0.74349624
000010 df 82 85 3f 83 a7 3e 3f ad 59 8d 3f 9a 35 6a 3f
       1.0430564 0.7447435 1.1042992 0.9148804

bias f4 [8]
000000 88 da 3f bf 6d f8 a5 be 4c 48 83 bd 79 bd 9b bd
       -0.7494283 -0.32416096 -0.06410274 -0.076044984
000010 1e ee 2a bf 7c 0b 15 be 09 85 61 bd 24 f8 31 bf
       -0.6676959 -0.14555162 -0.055058513 -0.6951926

running_mean f4 [8]
000000 64 d2 e4 bc b7 bb 5d 3d 15 8c 6b bf d3 aa 75 bf
       -0.027932353 0.054134097 -0.92010623 -0.9596378
000010 1e 6b c3 ba 25 5b 56 bf 8a fa 1c 3d b4 f9 d0 3c
       -0.0014909243 -0.83732826 0.03832487 0.025509693

running_var f4 [8]
000000 c8 79 75 3c 98 6a b3 3c d5 dd b9 3f ef 9b c3 3f
       0.014982648 0.021901414 1.4520823 1.5281962
000010 fd 25 5c 3c b0 23 64 3f 41 fd c5 3c a0 ec 38 3c
       0.0134367915 0.89116955 0.024168612 0.011286885

weight f4 [8, 1, 4, 4]
000000 51 a2 26 3b bf af 25 3a 78 17 13 ba 2e c8 5a b9
       0.0025426338 0.00063204387 -0.0005611102 -0.00020864673
000010 7c 1a 61 39 28 ec a9 ba d6 c2 1f 3d ca 00 0e 3c
       0.00021467538 -0.0012964057 0.03900417 0.00866718
000020 bc cd c1 ba 96 d8 96 39 73 09 8a 3f 54 5a 29 3d
       -0.0014786045 0.000287716 1.0784134 0.04134591
000030 f7 79 d5 3a 43 9d 88 3c 87 02 6d bb 15 3b 51 3c
       0.0016286959 0.01667655 -0.0036164836 0.012770434
000040 a3 b5 84 3b b0 d7 9a 3a 6e 99 d4 bb d3 9a c8 3b
       0.004049973 0.0011813547 -0.006488017 0.006121972
000050 3d 4f 89 3c 55 e6 fe 3d e6 18 9a 3d 3a 25 5d bc
       0.016761417 0.12446276 0.0752428 -0.013497645
000060 c8 1a 50 b9 42 99 e3 3e f1 26 a8 3d b5 b6 dd 3c
       -0.00019846403 0.44452864 0.082105525 0.02706466
000070 1d 99 cc 3b d9 c9 a5 bd 35 5e c3 3e 75 e6 07 bc
       0.0062438385 -0.0809514 0.38157812 -0.008294691
000080 d5 46 cc bc 4a 20 ac bd fb 9f 09 bd 13 c0 63 bc
       -0.02493612 -0.08404596 -0.033599835 -0.0139007745
000090 5a 2e 8a 3d 98 65 6a be 1f ac 4d 3b de fd a5 3c
       0.06747122 -0.22890317 0.003138311 0.020262655
0000a0 18 0e 07 3d fc 8c a6 bb e8 e0 7d be 5f 0c b3 bd
       0.032972425 -0.0050827246 -0.24792826 -0.08742594
0000b0 cc 94 e5 3d 7b 45 0c be eb 3c 8f bd 6c e9 00 3e
       0.112100214 -0.1369838 -0.06994041 0.12589043
0000c0 81 fb c4 bd 88 c9 1f 3d 8a 55 3f 3d 7b 8c a7 bc
       -0.09618283 0.039010555 0.046712436 -0.020452728
0000d0 86 5d 43 be 5e f6 05 3d 95 ce 6e be b3 1e dd bd
       -0.19078645 0.032705657 -0.23320992 -0.10796871
0000e0 0d 35 cd bd f5 5b 21 be 4e 1e 2c 3e 62 72 c3 3d
       -0.10019884 -0.15757735 0.16808435 0.09543301
0000f0 f0 8d fe bd 98 24 fd 3d 25 bc 69 3d 54 c1 10 be
       -0.12429416 0.12360495 0.057064194 -0.14136249
000100 68 66 8b bb 9f 1f 05 3a 13 98 84 3b f2 6b 50 bb
       -0.004254151 0.0005078259 0.004046449 -0.0031802622
000110 b6 10 6f bc b4 3c ab be c3 91 7c bd 48 4d 2a 3c
       -0.014591387 -0.3344475 -0.061662447 0.010394402
000120 89 df eb bb 85 a2 a3 be 30 20 64 bd 31 68 8b bc
       -0.0071982783 -0.3195993 -0.05569476 -0.017017456
000130 b5 86 78 bb 48 8d 9f 3d 34 86 48 3f 7a 46 d6 3c
       -0.0037922089 0.07790619 0.7832978 0.026156653
000140 3d 31 a5 bb 76 f6 f6 bc 76 2a aa bd 72 33 69 bd
       -0.00504127 -0.030146819 -0.0830888 -0.056933828
000150 6c 61 aa bd 0a 92 ed bd 46 6f 13 be e4 81 b6 bd
       -0.08319363 -0.1160012 -0.14397916 -0.089114934
000160 c4 5f 87 3d 0b bf e8 bd 79 b8 4e be ec 72 35 bd
       0.06610063 -0.113645636 -0.20187558 -0.04429905
000170 12 a6 13 3d 58 98 a8 3c 5e 15 3b 3d 80 a0 0a 3d
       0.03604705 0.020580456 0.045674674 0.03384447
000180 a4 88 1b 3c 19 f2 5e bc a2 05 c6 3a d0 84 df ba
       0.009493027 -0.013607525 0.001510788 -0.0017053131
000190 60 d4 7e 3c 2b 66 46 3f 6a 4e a4 3c 68 73 c4 ba
       0.015553564 0.77499646 0.020056922 -0.0014988007
0001a0 22 71 ee 3b 7d 2a f9 3c 0c a4 88 39 40 d4 11 bb
       0.00727667 0.030415768 0.00026062166 -0.0022251755
0001b0 80 e8 16 3b f0 8e 7e 3a 07 cc 3a 3b 45 0e 04 ba
       0.0023026764 0.00097106304 0.0028502957 -0.0005037527
0001c0 ce ad 7e 39 cd f7 cb 3b 28 88 db 3b 17 be f1 39
       0.00024288075 0.0062246085 0.0066995807 0.0004610873
0001d0 52 b8 81 3a dd 96 c3 bb 44 40 b0 bc 1b e8 f8 3b
       0.0009896851 -0.005968912 -0.02151502 0.0075960285
0001e0 bb 66 d7 3c 34 c9 8b 3f 3f 34 bb bc 3c ea 97 bb
       0.026294103 1.0920777 -0.022852061 -0.004636077
0001f0 11 8a a3 3b 3f d7 82 3d 01 bc 4c be f9 b7 d4 3b
       0.004990824 0.06388711 -0.19993593 0.006491658
